…
I0222 02:55:55.890256  4135 solver.cpp:61] Creating training net from train_net file: /nfs.yoda/xiaolonw/fast_rcnn/fast-rcnn-depth/scripts/pre_gan_scratch2/train.prototxt
I0222 02:55:55.891775  4135 net.cpp:42] Initializing net from parameters: 
name: "CaffeNet"
state {
  phase: TRAIN
}
layer {
  name: "data"
  type: "Python"
  top: "data"
  top: "rois"
  top: "labels"
  top: "bbox_targets"
  top: "bbox_loss_weights"
  python_param {
    module: "roi_data_layer.layer_pi"
    layer: "RoIDataLayerPi"
    param_str: "--num_classes 20 --num_data 1"
  }
}
layer {
  name: "da_conv1"
  type: "Convolution"
  bottom: "data"
  top: "da_conv1"
  param {
    lr_mult: 1
    decay_mult: 1
  }
  param {
    lr_mult: 2
    decay_mult: 0
  }
  convolution_param {
    num_output: 64
    pad: 2
    kernel_size: 5
    stride: 2
    weight_filler {
      type: "gaussian"
      std: 0.01
    }
    bias_filler {
      type: "constant"
      value: 0
    }
  }
}
layer {
  name: "da_relu1"
  type: "ReLU"
  bottom: "da_conv1"
  top: "da_conv1"
  relu_param {
    negative_slope: 0.2
  }
}
layer {
  name: "da_pool1"
  type: "Pooling"
  bottom: "da_conv1"
  top: "da_pool1"
  pooling_param {
    pool: MAX
    kernel_size: 3
    stride: 2
    pad: 0
  }
}
layer {
  name: "da_conv2"
  type: "Convolution"
  bottom: "da_pool1"
  top: "da_conv2"
  param {
    lr_mult: 1
    decay_mult: 1
  }
  param {
    lr_mult: 2
    decay_mult: 0
  }
  convolution_param {
    num_output: 128
    pad: 2
    kernel_size: 5
    stride: 2
    weight_filler {
      type: "gaussian"
      std: 0.01
    }
    bias_filler {
      type: "constant"
      value: 1
    }
  }
}
layer {
  name: "da_relu2"
  type: "ReLU"
  bottom: "da_conv2"
  top: "da_conv2"
  relu_param {
    negative_slope: 0.2
  }
}
layer {
  name: "da_pool2"
  type: "Pooling"
  bottom: "da_conv2"
  top: "da_pool2"
  pooling_param {
    pool: MAX
    kernel_size: 3
    stride: 2
    pad: 0
  }
}
layer {
  name: "da_conv3"
  type: "Convolution"
  bottom: "da_pool2"
  top: "da_conv3"
  param {
    lr_mult: 1
    decay_mult: 1
  }
  param {
    lr_mult: 2
    decay_mult: 0
  }
  convolution_param {
    num_output: 256
    pad: 1
    kernel_size: 3
    stride: 1
    weight_filler {
      type: "gaussian"
      std: 0.01
    }
    bias_filler {
      type: "constant"
      value: 0
    }
  }
}
layer {
  name: "da_relu3"
  type: "ReLU"
  bottom: "da_conv3"
  top: "da_conv3"
  relu_param {
    negative_slope: 0.2
  }
}
layer {
  name: "da_conv4"
  type: "Convolution"
  bottom: "da_conv3"
  top: "da_conv4"
  param {
    lr_mult: 1
    decay_mult: 1
  }
  param {
    lr_mult: 2
    decay_mult: 0
  }
  convolution_param {
    num_output: 512
    pad: 1
    kernel_size: 3
    stride: 1
    weight_filler {
      type: "gaussian"
      std: 0.01
    }
    bias_filler {
      type: "constant"
      value: 1
    }
  }
}
layer {
  name: "da_relu4"
  type: "ReLU"
  bottom: "da_conv4"
  top: "da_conv4"
  relu_param {
    negative_slope: 0.2
  }
}
layer {
  name: "da_conv5"
  type: "Convolution"
  bottom: "da_conv4"
  top: "da_conv5"
  param {
    lr_mult: 1
    decay_mult: 1
  }
  param {
    lr_mult: 2
    decay_mult: 0
  }
  convolution_param {
    num_output: 128
    pad: 1
    kernel_size: 3
    stride: 1
    weight_filler {
      type: "gaussian"
      std: 0.01
    }
    bias_filler {
      type: "constant"
      value: 1
    }
  }
}
layer {
  name: "da_relu5"
  type: "ReLU"
  bottom: "da_conv5"
  top: "da_conv5"
  relu_param {
    negative_slope: 0.2
  }
}
layer {
  name: "da_roi_pool5"
  type: "ROIPooling"
  bottom: "da_conv5"
  bottom: "rois"
  top: "da_pool5"
  roi_pooling_param {
    pooled_h: 6
    pooled_w: 6
    spatial_scale: 0.0625
  }
}
layer {
  name: "da_fc6"
  type: "InnerProduct"
  bottom: "da_pool5"
  top: "da_fc6"
  param {
    lr_mult: 1
    decay_mult: 1
  }
  param {
    lr_mult: 2
    decay_mult: 0
  }
  inner_product_param {
    num_output: 4096
    weight_filler {
      type: "gaussian"
      std: 0.005
    }
    bias_filler {
      type: "constant"
      value: 1
    }
  }
}
layer {
  name: "da_relu6"
  type: "ReLU"
  bottom: "da_fc6"
  top: "da_fc6"
}
layer {
  name: "da_drop6"
  type: "Dropout"
  bottom: "da_fc6"
  top: "da_fc6"
  dropout_param {
    dropout_ratio: 0.5
  }
}
layer {
  name: "da_fc7"
  type: "InnerProduct"
  bottom: "da_fc6"
  top: "da_fc7"
  param {
    lr_mult: 1
    decay_mult: 1
  }
  param {
    lr_mult: 2
    decay_mult: 0
  }
  inner_product_param {
    num_output: 4096
    weight_filler {
      type: "gaussian"
      std: 0.005
    }
    bias_filler {
      type: "constant"
      value: 1
    }
  }
}
layer {
  name: "da_relu7"
  type: "ReLU"
  bottom: "da_fc7"
  top: "da_fc7"
}
layer {
  name: "da_drop7"
  type: "Dropout"
  bottom: "da_fc7"
  top: "da_fc7"
  dropout_param {
    dropout_ratio: 0.5
  }
}
layer {
  name: "da_cls_score"
  type: "InnerProduct"
  bottom: "da_fc7"
  top: "cls_score_1"
  param {
    lr_mult: 1
    decay_mult: 1
  }
  param {
    lr_mult: 2
    decay_mult: 0
  }
  inner_product_param {
    num_output: 20
    weight_filler {
      type: "gaussian"
      std: 0.01
    }
    bias_filler {
      type: "constant"
      value: 0
    }
  }
}
layer {
  name: "da_bbox_pred"
  type: "InnerProduct"
  bottom: "da_fc7"
  top: "bbox_pred_1"
  param {
    lr_mult: 1
    decay_mult: 1
  }
  param {
    lr_mult: 2
    decay_mult: 0
  }
  inner_product_param {
    num_output: 80
    weight_filler {
      type: "gaussian"
      std: 0.001
    }
    bias_filler {
      type: "constant"
      value: 0
    }
  }
}
layer {
  name: "da_loss_cls"
  type: "SoftmaxWithLoss"
  bottom: "cls_score_1"
  bottom: "labels"
  top: "da_loss_cls"
  loss_weight: 0.5
}
layer {
  name: "da_loss_bbox"
  type: "SmoothL1Loss"
  bottom: "bbox_pred_1"
  bottom: "bbox_targets"
  bottom: "bbox_loss_weights"
  top: "da_loss_bbox"
  loss_weight: 0.5
}
I0222 02:55:55.891978  4135 layer_factory.hpp:74] Creating layer data
I0222 02:55:55.894544  4135 net.cpp:84] Creating Layer data
I0222 02:55:55.894568  4135 net.cpp:338] data -> data
I0222 02:55:55.894592  4135 net.cpp:338] data -> rois
I0222 02:55:55.894608  4135 net.cpp:338] data -> labels
I0222 02:55:55.894624  4135 net.cpp:338] data -> bbox_targets
I0222 02:55:55.894637  4135 net.cpp:338] data -> bbox_loss_weights
I0222 02:55:55.894651  4135 net.cpp:113] Setting up data
I0222 02:55:55.895812  4135 net.cpp:120] Top shape: 1 7 100 100 (70000)
I0222 02:55:55.895830  4135 net.cpp:120] Top shape: 1 5 (5)
I0222 02:55:55.895839  4135 net.cpp:120] Top shape: 1 (1)
I0222 02:55:55.895848  4135 net.cpp:120] Top shape: 1 80 (80)
I0222 02:55:55.895860  4135 net.cpp:120] Top shape: 1 80 (80)
I0222 02:55:55.895871  4135 layer_factory.hpp:74] Creating layer da_conv1
I0222 02:55:55.895895  4135 net.cpp:84] Creating Layer da_conv1
I0222 02:55:55.895903  4135 net.cpp:380] da_conv1 <- data
I0222 02:55:55.895920  4135 net.cpp:338] da_conv1 -> da_conv1
I0222 02:55:55.895934  4135 net.cpp:113] Setting up da_conv1
I0222 02:55:55.896214  4135 net.cpp:120] Top shape: 1 64 50 50 (160000)
I0222 02:55:55.896241  4135 layer_factory.hpp:74] Creating layer da_relu1
I0222 02:55:55.896256  4135 net.cpp:84] Creating Layer da_relu1
I0222 02:55:55.896265  4135 net.cpp:380] da_relu1 <- da_conv1
I0222 02:55:55.896275  4135 net.cpp:327] da_relu1 -> da_conv1 (in-place)
I0222 02:55:55.896286  4135 net.cpp:113] Setting up da_relu1
I0222 02:55:55.896301  4135 net.cpp:120] Top shape: 1 64 50 50 (160000)
I0222 02:55:55.896306  4135 layer_factory.hpp:74] Creating layer da_pool1
I0222 02:55:55.896317  4135 net.cpp:84] Creating Layer da_pool1
I0222 02:55:55.896325  4135 net.cpp:380] da_pool1 <- da_conv1
I0222 02:55:55.896337  4135 net.cpp:338] da_pool1 -> da_pool1
I0222 02:55:55.896348  4135 net.cpp:113] Setting up da_pool1
I0222 02:55:55.896370  4135 net.cpp:120] Top shape: 1 64 25 25 (40000)
I0222 02:55:55.896381  4135 layer_factory.hpp:74] Creating layer da_conv2
I0222 02:55:55.896395  4135 net.cpp:84] Creating Layer da_conv2
I0222 02:55:55.896404  4135 net.cpp:380] da_conv2 <- da_pool1
I0222 02:55:55.896416  4135 net.cpp:338] da_conv2 -> da_conv2
I0222 02:55:55.896428  4135 net.cpp:113] Setting up da_conv2
I0222 02:55:55.901168  4135 net.cpp:120] Top shape: 1 128 13 13 (21632)
I0222 02:55:55.901197  4135 layer_factory.hpp:74] Creating layer da_relu2
I0222 02:55:55.901211  4135 net.cpp:84] Creating Layer da_relu2
I0222 02:55:55.901221  4135 net.cpp:380] da_relu2 <- da_conv2
I0222 02:55:55.901234  4135 net.cpp:327] da_relu2 -> da_conv2 (in-place)
I0222 02:55:55.901252  4135 net.cpp:113] Setting up da_relu2
I0222 02:55:55.901263  4135 net.cpp:120] Top shape: 1 128 13 13 (21632)
I0222 02:55:55.901273  4135 layer_factory.hpp:74] Creating layer da_pool2
I0222 02:55:55.901286  4135 net.cpp:84] Creating Layer da_pool2
I0222 02:55:55.901295  4135 net.cpp:380] da_pool2 <- da_conv2
I0222 02:55:55.901307  4135 net.cpp:338] da_pool2 -> da_pool2
I0222 02:55:55.901322  4135 net.cpp:113] Setting up da_pool2
I0222 02:55:55.901340  4135 net.cpp:120] Top shape: 1 128 6 6 (4608)
I0222 02:55:55.901348  4135 layer_factory.hpp:74] Creating layer da_conv3
I0222 02:55:55.901365  4135 net.cpp:84] Creating Layer da_conv3
I0222 02:55:55.901372  4135 net.cpp:380] da_conv3 <- da_pool2
I0222 02:55:55.901387  4135 net.cpp:338] da_conv3 -> da_conv3
I0222 02:55:55.901401  4135 net.cpp:113] Setting up da_conv3
I0222 02:55:55.907897  4135 net.cpp:120] Top shape: 1 256 6 6 (9216)
I0222 02:55:55.907929  4135 layer_factory.hpp:74] Creating layer da_relu3
I0222 02:55:55.907946  4135 net.cpp:84] Creating Layer da_relu3
I0222 02:55:55.907955  4135 net.cpp:380] da_relu3 <- da_conv3
I0222 02:55:55.907969  4135 net.cpp:327] da_relu3 -> da_conv3 (in-place)
I0222 02:55:55.907984  4135 net.cpp:113] Setting up da_relu3
I0222 02:55:55.907995  4135 net.cpp:120] Top shape: 1 256 6 6 (9216)
I0222 02:55:55.908004  4135 layer_factory.hpp:74] Creating layer da_conv4
I0222 02:55:55.908020  4135 net.cpp:84] Creating Layer da_conv4
I0222 02:55:55.908030  4135 net.cpp:380] da_conv4 <- da_conv3
I0222 02:55:55.908044  4135 net.cpp:338] da_conv4 -> da_conv4
I0222 02:55:55.908059  4135 net.cpp:113] Setting up da_conv4
I0222 02:55:55.933046  4135 net.cpp:120] Top shape: 1 512 6 6 (18432)
I0222 02:55:55.933104  4135 layer_factory.hpp:74] Creating layer da_relu4
I0222 02:55:55.933128  4135 net.cpp:84] Creating Layer da_relu4
I0222 02:55:55.933138  4135 net.cpp:380] da_relu4 <- da_conv4
I0222 02:55:55.933156  4135 net.cpp:327] da_relu4 -> da_conv4 (in-place)
I0222 02:55:55.933171  4135 net.cpp:113] Setting up da_relu4
I0222 02:55:55.933184  4135 net.cpp:120] Top shape: 1 512 6 6 (18432)
I0222 02:55:55.933197  4135 layer_factory.hpp:74] Creating layer da_conv5
I0222 02:55:55.933213  4135 net.cpp:84] Creating Layer da_conv5
I0222 02:55:55.933220  4135 net.cpp:380] da_conv5 <- da_conv4
I0222 02:55:55.933233  4135 net.cpp:338] da_conv5 -> da_conv5
I0222 02:55:55.933249  4135 net.cpp:113] Setting up da_conv5
I0222 02:55:55.945538  4135 net.cpp:120] Top shape: 1 128 6 6 (4608)
I0222 02:55:55.945564  4135 layer_factory.hpp:74] Creating layer da_relu5
I0222 02:55:55.945580  4135 net.cpp:84] Creating Layer da_relu5
I0222 02:55:55.945588  4135 net.cpp:380] da_relu5 <- da_conv5
I0222 02:55:55.945600  4135 net.cpp:327] da_relu5 -> da_conv5 (in-place)
I0222 02:55:55.945613  4135 net.cpp:113] Setting up da_relu5
I0222 02:55:55.945626  4135 net.cpp:120] Top shape: 1 128 6 6 (4608)
I0222 02:55:55.945634  4135 layer_factory.hpp:74] Creating layer da_roi_pool5
I0222 02:55:55.945652  4135 net.cpp:84] Creating Layer da_roi_pool5
I0222 02:55:55.945659  4135 net.cpp:380] da_roi_pool5 <- da_conv5
I0222 02:55:55.945669  4135 net.cpp:380] da_roi_pool5 <- rois
I0222 02:55:55.945683  4135 net.cpp:338] da_roi_pool5 -> da_pool5
I0222 02:55:55.945696  4135 net.cpp:113] Setting up da_roi_pool5
I0222 02:55:55.945706  4135 roi_pooling_layer.cpp:30] Spatial scale: 0.0625
I0222 02:55:55.945731  4135 net.cpp:120] Top shape: 1 128 6 6 (4608)
I0222 02:55:55.945739  4135 layer_factory.hpp:74] Creating layer da_fc6
I0222 02:55:55.945756  4135 net.cpp:84] Creating Layer da_fc6
I0222 02:55:55.945765  4135 net.cpp:380] da_fc6 <- da_pool5
I0222 02:55:55.945780  4135 net.cpp:338] da_fc6 -> da_fc6
I0222 02:55:55.945793  4135 net.cpp:113] Setting up da_fc6
I0222 02:55:56.366791  4135 net.cpp:120] Top shape: 1 4096 (4096)
I0222 02:55:56.366827  4135 layer_factory.hpp:74] Creating layer da_relu6
I0222 02:55:56.366845  4135 net.cpp:84] Creating Layer da_relu6
I0222 02:55:56.366854  4135 net.cpp:380] da_relu6 <- da_fc6
I0222 02:55:56.366869  4135 net.cpp:327] da_relu6 -> da_fc6 (in-place)
I0222 02:55:56.366885  4135 net.cpp:113] Setting up da_relu6
I0222 02:55:56.366897  4135 net.cpp:120] Top shape: 1 4096 (4096)
I0222 02:55:56.366906  4135 layer_factory.hpp:74] Creating layer da_drop6
I0222 02:55:56.366930  4135 net.cpp:84] Creating Layer da_drop6
I0222 02:55:56.366937  4135 net.cpp:380] da_drop6 <- da_fc6
I0222 02:55:56.366948  4135 net.cpp:327] da_drop6 -> da_fc6 (in-place)
I0222 02:55:56.366961  4135 net.cpp:113] Setting up da_drop6
I0222 02:55:56.366978  4135 net.cpp:120] Top shape: 1 4096 (4096)
I0222 02:55:56.366987  4135 layer_factory.hpp:74] Creating layer da_fc7
I0222 02:55:56.367003  4135 net.cpp:84] Creating Layer da_fc7
I0222 02:55:56.367010  4135 net.cpp:380] da_fc7 <- da_fc6
I0222 02:55:56.367024  4135 net.cpp:338] da_fc7 -> da_fc7
I0222 02:55:56.367039  4135 net.cpp:113] Setting up da_fc7
I0222 02:55:56.714962  4135 net.cpp:120] Top shape: 1 4096 (4096)
I0222 02:55:56.714998  4135 layer_factory.hpp:74] Creating layer da_relu7
I0222 02:55:56.715015  4135 net.cpp:84] Creating Layer da_relu7
I0222 02:55:56.715023  4135 net.cpp:380] da_relu7 <- da_fc7
I0222 02:55:56.715040  4135 net.cpp:327] da_relu7 -> da_fc7 (in-place)
I0222 02:55:56.715055  4135 net.cpp:113] Setting up da_relu7
I0222 02:55:56.715067  4135 net.cpp:120] Top shape: 1 4096 (4096)
I0222 02:55:56.715080  4135 layer_factory.hpp:74] Creating layer da_drop7
I0222 02:55:56.715095  4135 net.cpp:84] Creating Layer da_drop7
I0222 02:55:56.715102  4135 net.cpp:380] da_drop7 <- da_fc7
I0222 02:55:56.715114  4135 net.cpp:327] da_drop7 -> da_fc7 (in-place)
I0222 02:55:56.715127  4135 net.cpp:113] Setting up da_drop7
I0222 02:55:56.715142  4135 net.cpp:120] Top shape: 1 4096 (4096)
I0222 02:55:56.715152  4135 layer_factory.hpp:74] Creating layer da_fc7_da_drop7_0_split
I0222 02:55:56.715167  4135 net.cpp:84] Creating Layer da_fc7_da_drop7_0_split
I0222 02:55:56.715173  4135 net.cpp:380] da_fc7_da_drop7_0_split <- da_fc7
I0222 02:55:56.715184  4135 net.cpp:338] da_fc7_da_drop7_0_split -> da_fc7_da_drop7_0_split_0
I0222 02:55:56.715203  4135 net.cpp:338] da_fc7_da_drop7_0_split -> da_fc7_da_drop7_0_split_1
I0222 02:55:56.715219  4135 net.cpp:113] Setting up da_fc7_da_drop7_0_split
I0222 02:55:56.715231  4135 net.cpp:120] Top shape: 1 4096 (4096)
I0222 02:55:56.715240  4135 net.cpp:120] Top shape: 1 4096 (4096)
I0222 02:55:56.715247  4135 layer_factory.hpp:74] Creating layer da_cls_score
I0222 02:55:56.715260  4135 net.cpp:84] Creating Layer da_cls_score
I0222 02:55:56.715266  4135 net.cpp:380] da_cls_score <- da_fc7_da_drop7_0_split_0
I0222 02:55:56.715277  4135 net.cpp:338] da_cls_score -> cls_score_1
I0222 02:55:56.715289  4135 net.cpp:113] Setting up da_cls_score
I0222 02:55:56.717300  4135 net.cpp:120] Top shape: 1 20 (20)
I0222 02:55:56.717320  4135 layer_factory.hpp:74] Creating layer da_bbox_pred
I0222 02:55:56.717336  4135 net.cpp:84] Creating Layer da_bbox_pred
I0222 02:55:56.717344  4135 net.cpp:380] da_bbox_pred <- da_fc7_da_drop7_0_split_1
I0222 02:55:56.717357  4135 net.cpp:338] da_bbox_pred -> bbox_pred_1
I0222 02:55:56.717370  4135 net.cpp:113] Setting up da_bbox_pred
I0222 02:55:56.724359  4135 net.cpp:120] Top shape: 1 80 (80)
I0222 02:55:56.724391  4135 layer_factory.hpp:74] Creating layer da_loss_cls
I0222 02:55:56.724414  4135 net.cpp:84] Creating Layer da_loss_cls
I0222 02:55:56.724423  4135 net.cpp:380] da_loss_cls <- cls_score_1
I0222 02:55:56.724436  4135 net.cpp:380] da_loss_cls <- labels
I0222 02:55:56.724449  4135 net.cpp:338] da_loss_cls -> da_loss_cls
I0222 02:55:56.724465  4135 net.cpp:113] Setting up da_loss_cls
…
