…
I0222 02:56:55.031564  4597 solver.cpp:61] Creating training net from train_net file: /nfs.yoda/xiaolonw/fast_rcnn/fast-rcnn-depth/scripts/pre_alexnet_scratch2/train.prototxt
I0222 02:56:55.032882  4597 net.cpp:42] Initializing net from parameters: 
name: "CaffeNet"
state {
  phase: TRAIN
}
layer {
  name: "data"
  type: "Python"
  top: "data"
  top: "rois"
  top: "labels"
  top: "bbox_targets"
  top: "bbox_loss_weights"
  python_param {
    module: "roi_data_layer.layer_pi"
    layer: "RoIDataLayerPi"
    param_str: "--num_classes 20 --num_data 1"
  }
}
layer {
  name: "da_conv1"
  type: "Convolution"
  bottom: "data"
  top: "da_conv1"
  param {
    lr_mult: 1
    decay_mult: 1
  }
  param {
    lr_mult: 2
    decay_mult: 0
  }
  convolution_param {
    num_output: 96
    pad: 7
    kernel_size: 11
    stride: 4
    weight_filler {
      type: "gaussian"
      std: 0.01
    }
    bias_filler {
      type: "constant"
      value: 0
    }
  }
}
layer {
  name: "da_relu1"
  type: "ReLU"
  bottom: "da_conv1"
  top: "da_conv1"
  relu_param {
    negative_slope: 0.2
  }
}
layer {
  name: "da_pool1"
  type: "Pooling"
  bottom: "da_conv1"
  top: "da_pool1"
  pooling_param {
    pool: MAX
    kernel_size: 3
    stride: 2
    pad: 0
  }
}
layer {
  name: "da_conv2"
  type: "Convolution"
  bottom: "da_pool1"
  top: "da_conv2"
  param {
    lr_mult: 1
    decay_mult: 1
  }
  param {
    lr_mult: 2
    decay_mult: 0
  }
  convolution_param {
    num_output: 256
    pad: 2
    kernel_size: 5
    stride: 1
    weight_filler {
      type: "gaussian"
      std: 0.01
    }
    bias_filler {
      type: "constant"
      value: 1
    }
  }
}
layer {
  name: "da_relu2"
  type: "ReLU"
  bottom: "da_conv2"
  top: "da_conv2"
  relu_param {
    negative_slope: 0.2
  }
}
layer {
  name: "da_pool2"
  type: "Pooling"
  bottom: "da_conv2"
  top: "da_pool2"
  pooling_param {
    pool: MAX
    kernel_size: 3
    stride: 2
    pad: 0
  }
}
layer {
  name: "da_conv3"
  type: "Convolution"
  bottom: "da_pool2"
  top: "da_conv3"
  param {
    lr_mult: 1
    decay_mult: 1
  }
  param {
    lr_mult: 2
    decay_mult: 0
  }
  convolution_param {
    num_output: 384
    pad: 1
    kernel_size: 3
    stride: 1
    weight_filler {
      type: "gaussian"
      std: 0.01
    }
    bias_filler {
      type: "constant"
      value: 0
    }
  }
}
layer {
  name: "da_relu3"
  type: "ReLU"
  bottom: "da_conv3"
  top: "da_conv3"
  relu_param {
    negative_slope: 0.2
  }
}
layer {
  name: "da_conv4"
  type: "Convolution"
  bottom: "da_conv3"
  top: "da_conv4"
  param {
    lr_mult: 1
    decay_mult: 1
  }
  param {
    lr_mult: 2
    decay_mult: 0
  }
  convolution_param {
    num_output: 384
    pad: 1
    kernel_size: 3
    stride: 1
    weight_filler {
      type: "gaussian"
      std: 0.01
    }
    bias_filler {
      type: "constant"
      value: 1
    }
  }
}
layer {
  name: "da_relu4"
  type: "ReLU"
  bottom: "da_conv4"
  top: "da_conv4"
  relu_param {
    negative_slope: 0.2
  }
}
layer {
  name: "da_conv5"
  type: "Convolution"
  bottom: "da_conv4"
  top: "da_conv5"
  param {
    lr_mult: 1
    decay_mult: 1
  }
  param {
    lr_mult: 2
    decay_mult: 0
  }
  convolution_param {
    num_output: 256
    pad: 1
    kernel_size: 3
    stride: 1
    weight_filler {
      type: "gaussian"
      std: 0.01
    }
    bias_filler {
      type: "constant"
      value: 1
    }
  }
}
layer {
  name: "da_relu5"
  type: "ReLU"
  bottom: "da_conv5"
  top: "da_conv5"
  relu_param {
    negative_slope: 0.2
  }
}
layer {
  name: "da_roi_pool5"
  type: "ROIPooling"
  bottom: "da_conv5"
  bottom: "rois"
  top: "da_pool5"
  roi_pooling_param {
    pooled_h: 6
    pooled_w: 6
    spatial_scale: 0.0625
  }
}
layer {
  name: "da_fc6"
  type: "InnerProduct"
  bottom: "da_pool5"
  top: "da_fc6"
  param {
    lr_mult: 1
    decay_mult: 1
  }
  param {
    lr_mult: 2
    decay_mult: 0
  }
  inner_product_param {
    num_output: 4096
    weight_filler {
      type: "gaussian"
      std: 0.005
    }
    bias_filler {
      type: "constant"
      value: 1
    }
  }
}
layer {
  name: "da_relu6"
  type: "ReLU"
  bottom: "da_fc6"
  top: "da_fc6"
}
layer {
  name: "da_drop6"
  type: "Dropout"
  bottom: "da_fc6"
  top: "da_fc6"
  dropout_param {
    dropout_ratio: 0.5
  }
}
layer {
  name: "da_fc7"
  type: "InnerProduct"
  bottom: "da_fc6"
  top: "da_fc7"
  param {
    lr_mult: 1
    decay_mult: 1
  }
  param {
    lr_mult: 2
    decay_mult: 0
  }
  inner_product_param {
    num_output: 4096
    weight_filler {
      type: "gaussian"
      std: 0.005
    }
    bias_filler {
      type: "constant"
      value: 1
    }
  }
}
layer {
  name: "da_relu7"
  type: "ReLU"
  bottom: "da_fc7"
  top: "da_fc7"
}
layer {
  name: "da_drop7"
  type: "Dropout"
  bottom: "da_fc7"
  top: "da_fc7"
  dropout_param {
    dropout_ratio: 0.5
  }
}
layer {
  name: "da_cls_score"
  type: "InnerProduct"
  bottom: "da_fc7"
  top: "cls_score_1"
  param {
    lr_mult: 1
    decay_mult: 1
  }
  param {
    lr_mult: 2
    decay_mult: 0
  }
  inner_product_param {
    num_output: 20
    weight_filler {
      type: "gaussian"
      std: 0.01
    }
    bias_filler {
      type: "constant"
      value: 0
    }
  }
}
layer {
  name: "da_bbox_pred"
  type: "InnerProduct"
  bottom: "da_fc7"
  top: "bbox_pred_1"
  param {
    lr_mult: 1
    decay_mult: 1
  }
  param {
    lr_mult: 2
    decay_mult: 0
  }
  inner_product_param {
    num_output: 80
    weight_filler {
      type: "gaussian"
      std: 0.001
    }
    bias_filler {
      type: "constant"
      value: 0
    }
  }
}
layer {
  name: "da_loss_cls"
  type: "SoftmaxWithLoss"
  bottom: "cls_score_1"
  bottom: "labels"
  top: "da_loss_cls"
  loss_weight: 0.5
}
layer {
  name: "da_loss_bbox"
  type: "SmoothL1Loss"
  bottom: "bbox_pred_1"
  bottom: "bbox_targets"
  bottom: "bbox_loss_weights"
  top: "da_loss_bbox"
  loss_weight: 0.5
}
I0222 02:56:55.033018  4597 layer_factory.hpp:74] Creating layer data
I0222 02:56:55.035529  4597 net.cpp:84] Creating Layer data
I0222 02:56:55.035545  4597 net.cpp:338] data -> data
I0222 02:56:55.035560  4597 net.cpp:338] data -> rois
I0222 02:56:55.035572  4597 net.cpp:338] data -> labels
I0222 02:56:55.035580  4597 net.cpp:338] data -> bbox_targets
I0222 02:56:55.035589  4597 net.cpp:338] data -> bbox_loss_weights
I0222 02:56:55.035598  4597 net.cpp:113] Setting up data
I0222 02:56:55.036536  4597 net.cpp:120] Top shape: 1 7 100 100 (70000)
I0222 02:56:55.036550  4597 net.cpp:120] Top shape: 1 5 (5)
I0222 02:56:55.036556  4597 net.cpp:120] Top shape: 1 (1)
I0222 02:56:55.036564  4597 net.cpp:120] Top shape: 1 80 (80)
I0222 02:56:55.036569  4597 net.cpp:120] Top shape: 1 80 (80)
I0222 02:56:55.036574  4597 layer_factory.hpp:74] Creating layer da_conv1
I0222 02:56:55.036600  4597 net.cpp:84] Creating Layer da_conv1
I0222 02:56:55.036608  4597 net.cpp:380] da_conv1 <- data
I0222 02:56:55.036617  4597 net.cpp:338] da_conv1 -> da_conv1
I0222 02:56:55.036626  4597 net.cpp:113] Setting up da_conv1
I0222 02:56:55.038337  4597 net.cpp:120] Top shape: 1 96 26 26 (64896)
I0222 02:56:55.038357  4597 layer_factory.hpp:74] Creating layer da_relu1
I0222 02:56:55.038368  4597 net.cpp:84] Creating Layer da_relu1
I0222 02:56:55.038373  4597 net.cpp:380] da_relu1 <- da_conv1
I0222 02:56:55.038380  4597 net.cpp:327] da_relu1 -> da_conv1 (in-place)
I0222 02:56:55.038393  4597 net.cpp:113] Setting up da_relu1
I0222 02:56:55.038408  4597 net.cpp:120] Top shape: 1 96 26 26 (64896)
I0222 02:56:55.038417  4597 layer_factory.hpp:74] Creating layer da_pool1
I0222 02:56:55.038427  4597 net.cpp:84] Creating Layer da_pool1
I0222 02:56:55.038435  4597 net.cpp:380] da_pool1 <- da_conv1
I0222 02:56:55.038446  4597 net.cpp:338] da_pool1 -> da_pool1
I0222 02:56:55.038462  4597 net.cpp:113] Setting up da_pool1
I0222 02:56:55.038481  4597 net.cpp:120] Top shape: 1 96 13 13 (16224)
I0222 02:56:55.038486  4597 layer_factory.hpp:74] Creating layer da_conv2
I0222 02:56:55.038496  4597 net.cpp:84] Creating Layer da_conv2
I0222 02:56:55.038499  4597 net.cpp:380] da_conv2 <- da_pool1
I0222 02:56:55.038509  4597 net.cpp:338] da_conv2 -> da_conv2
I0222 02:56:55.038517  4597 net.cpp:113] Setting up da_conv2
I0222 02:56:55.051427  4597 net.cpp:120] Top shape: 1 256 13 13 (43264)
I0222 02:56:55.051442  4597 layer_factory.hpp:74] Creating layer da_relu2
I0222 02:56:55.051453  4597 net.cpp:84] Creating Layer da_relu2
I0222 02:56:55.051458  4597 net.cpp:380] da_relu2 <- da_conv2
I0222 02:56:55.051465  4597 net.cpp:327] da_relu2 -> da_conv2 (in-place)
I0222 02:56:55.051471  4597 net.cpp:113] Setting up da_relu2
I0222 02:56:55.051479  4597 net.cpp:120] Top shape: 1 256 13 13 (43264)
I0222 02:56:55.051482  4597 layer_factory.hpp:74] Creating layer da_pool2
I0222 02:56:55.051489  4597 net.cpp:84] Creating Layer da_pool2
I0222 02:56:55.051494  4597 net.cpp:380] da_pool2 <- da_conv2
I0222 02:56:55.051501  4597 net.cpp:338] da_pool2 -> da_pool2
I0222 02:56:55.051509  4597 net.cpp:113] Setting up da_pool2
I0222 02:56:55.051520  4597 net.cpp:120] Top shape: 1 256 6 6 (9216)
I0222 02:56:55.051524  4597 layer_factory.hpp:74] Creating layer da_conv3
I0222 02:56:55.051532  4597 net.cpp:84] Creating Layer da_conv3
I0222 02:56:55.051535  4597 net.cpp:380] da_conv3 <- da_pool2
I0222 02:56:55.051544  4597 net.cpp:338] da_conv3 -> da_conv3
I0222 02:56:55.051553  4597 net.cpp:113] Setting up da_conv3
I0222 02:56:55.069927  4597 net.cpp:120] Top shape: 1 384 6 6 (13824)
I0222 02:56:55.069946  4597 layer_factory.hpp:74] Creating layer da_relu3
I0222 02:56:55.069954  4597 net.cpp:84] Creating Layer da_relu3
I0222 02:56:55.069959  4597 net.cpp:380] da_relu3 <- da_conv3
I0222 02:56:55.069967  4597 net.cpp:327] da_relu3 -> da_conv3 (in-place)
I0222 02:56:55.069973  4597 net.cpp:113] Setting up da_relu3
I0222 02:56:55.069979  4597 net.cpp:120] Top shape: 1 384 6 6 (13824)
I0222 02:56:55.069983  4597 layer_factory.hpp:74] Creating layer da_conv4
I0222 02:56:55.069990  4597 net.cpp:84] Creating Layer da_conv4
I0222 02:56:55.069994  4597 net.cpp:380] da_conv4 <- da_conv3
I0222 02:56:55.070001  4597 net.cpp:338] da_conv4 -> da_conv4
I0222 02:56:55.070008  4597 net.cpp:113] Setting up da_conv4
I0222 02:56:55.097553  4597 net.cpp:120] Top shape: 1 384 6 6 (13824)
I0222 02:56:55.097571  4597 layer_factory.hpp:74] Creating layer da_relu4
I0222 02:56:55.097584  4597 net.cpp:84] Creating Layer da_relu4
I0222 02:56:55.097589  4597 net.cpp:380] da_relu4 <- da_conv4
I0222 02:56:55.097596  4597 net.cpp:327] da_relu4 -> da_conv4 (in-place)
I0222 02:56:55.097604  4597 net.cpp:113] Setting up da_relu4
I0222 02:56:55.097611  4597 net.cpp:120] Top shape: 1 384 6 6 (13824)
I0222 02:56:55.097615  4597 layer_factory.hpp:74] Creating layer da_conv5
I0222 02:56:55.097623  4597 net.cpp:84] Creating Layer da_conv5
I0222 02:56:55.097627  4597 net.cpp:380] da_conv5 <- da_conv4
I0222 02:56:55.097635  4597 net.cpp:338] da_conv5 -> da_conv5
I0222 02:56:55.097645  4597 net.cpp:113] Setting up da_conv5
I0222 02:56:55.116068  4597 net.cpp:120] Top shape: 1 256 6 6 (9216)
I0222 02:56:55.116091  4597 layer_factory.hpp:74] Creating layer da_relu5
I0222 02:56:55.116104  4597 net.cpp:84] Creating Layer da_relu5
I0222 02:56:55.116108  4597 net.cpp:380] da_relu5 <- da_conv5
I0222 02:56:55.116114  4597 net.cpp:327] da_relu5 -> da_conv5 (in-place)
I0222 02:56:55.116122  4597 net.cpp:113] Setting up da_relu5
I0222 02:56:55.116128  4597 net.cpp:120] Top shape: 1 256 6 6 (9216)
I0222 02:56:55.116132  4597 layer_factory.hpp:74] Creating layer da_roi_pool5
I0222 02:56:55.116143  4597 net.cpp:84] Creating Layer da_roi_pool5
I0222 02:56:55.116148  4597 net.cpp:380] da_roi_pool5 <- da_conv5
I0222 02:56:55.116154  4597 net.cpp:380] da_roi_pool5 <- rois
I0222 02:56:55.116161  4597 net.cpp:338] da_roi_pool5 -> da_pool5
I0222 02:56:55.116168  4597 net.cpp:113] Setting up da_roi_pool5
I0222 02:56:55.116175  4597 roi_pooling_layer.cpp:30] Spatial scale: 0.0625
I0222 02:56:55.116196  4597 net.cpp:120] Top shape: 1 256 6 6 (9216)
I0222 02:56:55.116207  4597 layer_factory.hpp:74] Creating layer da_fc6
I0222 02:56:55.116220  4597 net.cpp:84] Creating Layer da_fc6
I0222 02:56:55.116226  4597 net.cpp:380] da_fc6 <- da_pool5
I0222 02:56:55.116235  4597 net.cpp:338] da_fc6 -> da_fc6
I0222 02:56:55.116243  4597 net.cpp:113] Setting up da_fc6
I0222 02:56:56.029855  4597 net.cpp:120] Top shape: 1 4096 (4096)
I0222 02:56:56.029882  4597 layer_factory.hpp:74] Creating layer da_relu6
I0222 02:56:56.029894  4597 net.cpp:84] Creating Layer da_relu6
I0222 02:56:56.029901  4597 net.cpp:380] da_relu6 <- da_fc6
I0222 02:56:56.029909  4597 net.cpp:327] da_relu6 -> da_fc6 (in-place)
I0222 02:56:56.029919  4597 net.cpp:113] Setting up da_relu6
I0222 02:56:56.029925  4597 net.cpp:120] Top shape: 1 4096 (4096)
I0222 02:56:56.029929  4597 layer_factory.hpp:74] Creating layer da_drop6
I0222 02:56:56.029945  4597 net.cpp:84] Creating Layer da_drop6
I0222 02:56:56.029952  4597 net.cpp:380] da_drop6 <- da_fc6
I0222 02:56:56.029958  4597 net.cpp:327] da_drop6 -> da_fc6 (in-place)
I0222 02:56:56.029964  4597 net.cpp:113] Setting up da_drop6
I0222 02:56:56.029974  4597 net.cpp:120] Top shape: 1 4096 (4096)
I0222 02:56:56.029980  4597 layer_factory.hpp:74] Creating layer da_fc7
I0222 02:56:56.029989  4597 net.cpp:84] Creating Layer da_fc7
I0222 02:56:56.029994  4597 net.cpp:380] da_fc7 <- da_fc6
I0222 02:56:56.030002  4597 net.cpp:338] da_fc7 -> da_fc7
I0222 02:56:56.030012  4597 net.cpp:113] Setting up da_fc7
I0222 02:56:56.380254  4597 net.cpp:120] Top shape: 1 4096 (4096)
I0222 02:56:56.380280  4597 layer_factory.hpp:74] Creating layer da_relu7
I0222 02:56:56.380297  4597 net.cpp:84] Creating Layer da_relu7
I0222 02:56:56.380303  4597 net.cpp:380] da_relu7 <- da_fc7
I0222 02:56:56.380312  4597 net.cpp:327] da_relu7 -> da_fc7 (in-place)
I0222 02:56:56.380322  4597 net.cpp:113] Setting up da_relu7
I0222 02:56:56.380328  4597 net.cpp:120] Top shape: 1 4096 (4096)
I0222 02:56:56.380332  4597 layer_factory.hpp:74] Creating layer da_drop7
I0222 02:56:56.380341  4597 net.cpp:84] Creating Layer da_drop7
I0222 02:56:56.380345  4597 net.cpp:380] da_drop7 <- da_fc7
I0222 02:56:56.380352  4597 net.cpp:327] da_drop7 -> da_fc7 (in-place)
I0222 02:56:56.380358  4597 net.cpp:113] Setting up da_drop7
I0222 02:56:56.380367  4597 net.cpp:120] Top shape: 1 4096 (4096)
I0222 02:56:56.380373  4597 layer_factory.hpp:74] Creating layer da_fc7_da_drop7_0_split
I0222 02:56:56.380381  4597 net.cpp:84] Creating Layer da_fc7_da_drop7_0_split
I0222 02:56:56.380385  4597 net.cpp:380] da_fc7_da_drop7_0_split <- da_fc7
I0222 02:56:56.380391  4597 net.cpp:338] da_fc7_da_drop7_0_split -> da_fc7_da_drop7_0_split_0
I0222 02:56:56.380401  4597 net.cpp:338] da_fc7_da_drop7_0_split -> da_fc7_da_drop7_0_split_1
I0222 02:56:56.380414  4597 net.cpp:113] Setting up da_fc7_da_drop7_0_split
I0222 02:56:56.380422  4597 net.cpp:120] Top shape: 1 4096 (4096)
I0222 02:56:56.380430  4597 net.cpp:120] Top shape: 1 4096 (4096)
I0222 02:56:56.380435  4597 layer_factory.hpp:74] Creating layer da_cls_score
I0222 02:56:56.380445  4597 net.cpp:84] Creating Layer da_cls_score
I0222 02:56:56.380450  4597 net.cpp:380] da_cls_score <- da_fc7_da_drop7_0_split_0
I0222 02:56:56.380458  4597 net.cpp:338] da_cls_score -> cls_score_1
I0222 02:56:56.380466  4597 net.cpp:113] Setting up da_cls_score
I0222 02:56:56.382174  4597 net.cpp:120] Top shape: 1 20 (20)
I0222 02:56:56.382189  4597 layer_factory.hpp:74] Creating layer da_bbox_pred
I0222 02:56:56.382197  4597 net.cpp:84] Creating Layer da_bbox_pred
I0222 02:56:56.382201  4597 net.cpp:380] da_bbox_pred <- da_fc7_da_drop7_0_split_1
I0222 02:56:56.382210  4597 net.cpp:338] da_bbox_pred -> bbox_pred_1
I0222 02:56:56.382217  4597 net.cpp:113] Setting up da_bbox_pred
I0222 02:56:56.389142  4597 net.cpp:120] Top shape: 1 80 (80)
I0222 02:56:56.389170  4597 layer_factory.hpp:74] Creating layer da_loss_cls
I0222 02:56:56.389188  4597 net.cpp:84] Creating Layer da_loss_cls
I0222 02:56:56.389194  4597 net.cpp:380] da_loss_cls <- cls_score_1
I0222 02:56:56.389200  4597 net.cpp:380] da_loss_cls <- labels
I0222 02:56:56.389207  4597 net.cpp:338] da_loss_cls -> da_loss_cls
I0222 02:56:56.389219  4597 net.cpp:113] Setting up da_loss_cls
…
